codes/fgsm/pretrained/lenet_mnist_model.pth (torch_old, 88724 bytes, 8 tensors)

conv1.weight f4 [10, 1, 5, 5]
0	0x3d92945a	0.07157202
1	0xbe5793f5	-0.21052535
2	0xbeac7769	-0.33684853
3	0xbe9c5f11	-0.3054128
4	0xbed4e88c	-0.4158367
5	0x3e61f27e	0.2206516
6	0x3d2124b2	0.039341636
7	0xbd8c87d2	-0.06861843
8	0xbe366074	-0.17810231
9	0xbe8659cf	-0.26240394
10	0x3e6c565c	0.23079818
11	0x3ebccf25	0.3687679
12	0x3ec75ecd	0.38939515
13	0x3e218882	0.1577473
14	0xbc5d2426	-0.013497388
15	0x3c338edc	0.010959353
16	0x3e8bc648	0.27299714
17	0x3ea50e20	0.3223734
18	0x3ef163d8	0.47146487
19	0x3e7bbb14	0.24583083
20	0xbe6653d4	-0.22492915
21	0xbe87f72e	-0.2655577
22	0xbe2f6f40	-0.17132282
23	0xbdd455bf	-0.10367917
24	0x3ccc6802	0.024951939
25	0x3e26915a	0.16266385
26	0x3e9d1b32	0.3068481
27	0x3c287360	0.010281414
28	0xbecfa58a	-0.40555984
29	0xbe1e1fa0	-0.15441751
30	0x3e6e2855	0.23257573
31	0x3ebe3f40	0.3715763
32	0xba87e13c	-0.0010366808
33	0xbed67b6e	-0.41891044
34	0xbec42b2b	-0.38314185
35	0x3e2d6b09	0.16935362
36	0x3edb1c01	0.42794803
37	0xbe303b5b	-0.17210142
38	0xbe55f557	-0.20894371
39	0xbea4f62a	-0.32219058
40	0x3ec38038	0.3818376
41	0x3d8d46c4	0.06898263
42	0x3d812be8	0.063072026
43	0xbe50f68a	-0.20406547
44	0xbe79366b	-0.24337165
45	0x3e842e42	0.25816542
46	0x3df0a85d	0.11750863
47	0x3e0da063	0.13830714
48	0xbdf3d20a	-0.11905296
49	0xbdafbf41	-0.08581401
50	0xbecd3ff0	-0.40087843
51	0xbe8e5093	-0.27795848
52	0x3c3ff492	0.011716025
53	0x3cf342d0	0.029694945
54	0x3e94cf50	0.29064417
55	0xbdfee350	-0.124457
56	0xbdece24a	-0.11566599
57	0x3ca358cc	0.019939803
58	0x3eaa436c	0.33254564
59	0x3e19f404	0.15034491
60	0xbe81f3ca	-0.2538131
61	0x3e29c8d0	0.1658051
62	0x3ecab486	0.39590853
63	0x3ed690d8	0.41907382
64	0xbe18c592	-0.14919117
65	0x3cc5f7ff	0.024166105
66	0x3e1ce7eb	0.15322845
67	0x3e925ed6	0.2858798
68	0xbd6a1a4f	-0.057153996
69	0xbe6eb5df	-0.23311566
70	0x3e36d5bf	0.17854975
71	0x3d1ae155	0.03781255
72	0x3d7ff5d5	0.062490303
73	0xbe0e6f68	-0.13909686
74	0xbde02745	-0.1094499
75	0x3e59663e	0.21230409
76	0x3ec5ff3d	0.38671294
77	0x3eb56c35	0.35434118
78	0x3cc3337e	0.023828264
79	0x3e3bd3f9	0.1834258
80	0xbe1b995e	-0.15195224
81	0xbd12ba53	-0.035822224
82	0x3e09704a	0.13421741
83	0x3e08791b	0.13327448
84	0x3e6ee634	0.23330003
85	0xbe3c8bd3	-0.18412714
86	0xbe8147b7	-0.25250027
87	0x3d4b702f	0.049667533
88	0xbc0eb698	-0.008710526
89	0x3e156039	0.14587487
90	0x3d877a41	0.06615115
91	0xbe88462e	-0.26616043
92	0xbe3c3616	-0.18380007
93	0xbdb5bcf5	-0.08873931
94	0xbe881bf2	-0.2658382
95	0xbcdd74b6	-0.027033191
96	0x3d10b88f	0.03533226
97	0xbe2200ab	-0.15820567
98	0xbe826648	-0.2546866
99	0xbe519a37	-0.20468985
100	0x3eabb89e	0.3353929
101	0x3d9cf257	0.0766341
102	0x3e307b46	0.17234525
103	0x3c947c53	0.018125689
104	0xbe796dc2	-0.24358276
105	0xbe392e27	-0.18084012
106	0x3ea11b5b	0.31466183
107	0x3dc4733f	0.09592294
108	0x3d899d6b	0.06719478
109	0xbc98110b	-0.018562814
110	0xbc83c3ec	-0.016084634
111	0x3eba969c	0.3644303
112	0x3e9a8ba1	0.30184653
113	0xbe38c444	-0.1804362
114	0x3d04fa3d	0.03246521
115	0x3decb2ed	0.11557565
116	0x3e9e5fc6	0.30932444
117	0x3e8bbdab	0.27293143
118	0xbd48cffa	-0.049026467
119	0xbc069a4d	-0.008215499
120	0xbe3c3990	-0.18381333
121	0x3d54605f	0.05184972
122	0x3e9a423b	0.30128655
123	0x3ba555c1	0.005045623
124	0x3e7574b6	0.23970303
125	0xbe546498	-0.20741498
126	0xbea771d1	-0.32704023
127	0xbe3249df	-0.17410992
128	0x3e5dafcd	0.21649094
129	0x3eca7c74	0.39548075
130	0xbe1a3075	-0.15057547
131	0x3da23cc5	0.07921747
132	0x3e8c4bcb	0.27401575
133	0x3ec2f119	0.38074568
134	0x3e61a49e	0.22035453
135	0x3e76c327	0.24097882
136	0x3e4c656e	0.19960567
137	0x3d81374b	0.063093744
138	0xbd8dc11f	-0.069216006
139	0xbe7384fa	-0.23781195
140	0xbbdb6215	-0.006695042
141	0xbd0fa17e	-0.03506612
142	0xbe65fb93	-0.22459249
143	0x3d80599c	0.06267092
144	0x3de406ac	0.11134085
145	0xbc3f15f4	-0.011662949
146	0x3cd5ceb1	0.026099535
147	0x3c599999	0.013281249
148	0x3e32ab85	0.17448242
149	0x3e7886cf	0.24270175
150	0xbe0a10fe	-0.13483045
151	0x3ddfb8fa	0.10923953
152	0xbcc7c94e	-0.024387982
153	0x3cef1479	0.029184567
154	0xbe7158a8	-0.23568976
155	0xbe6387c5	-0.2221976
156	0xbe313fc7	-0.17309485
157	0xbd38f99d	-0.045159925
158	0x3e5ff344	0.21870142
159	0xbdd74ad4	-0.10512319
160	0xbe79a4fc	-0.24379343
161	0x3d36c1df	0.044618484
162	0x3deef4e7	0.11667805
163	0x3e2a7285	0.16645248
164	0xbe2df2f4	-0.1698721
165	0xbc4dbf00	-0.012557745
166	0xbdb2e340	-0.08734751
167	0xbcefdae7	-0.029279185
168	0xbe126848	-0.14297593
169	0xbd8c2e38	-0.06844753
170	0xbc6ab3f2	-0.014325129
171	0x3dbaa000	0.09112549
172	0x3d849571	0.06473816
173	0x3e2d4c71	0.16923691
174	0x3ec8344a	0.39102393
175	0x3e12e343	0.14344506
176	0x3e4f0ccf	0.2021973
177	0x3e07b09a	0.13250962
178	0xbdf7c71b	-0.12098523
179	0x3e5661c8	0.20935738
180	0xbe70947d	-0.23494144
181	0xbe5eea5c	-0.21769089
182	0xbecd58c5	-0.40106788
183	0xbeb3464c	-0.3501457
184	0xbeb90cef	-0.3614268
185	0x3dc80f55	0.09768549
186	0xbe8e84f5	-0.27835813
187	0xbe9f5bf6	-0.31124848
188	0xbe477d01	-0.19481279
189	0xbe596e4c	-0.21233481
190	0x3e7151fa	0.23566428
191	0x3e08caa0	0.13358545
192	0x3ddf2a3a	0.10896726
193	0x3e172336	0.14759526
194	0x3e92b0e5	0.28650585
195	0xbb750890	-0.0037389137
196	0x3ec6e431	0.3884597
197	0x3ef24831	0.47320703
198	0x3ece3f3b	0.40282616
199	0x3c8ed05e	0.017433342
200	0x3ce491b2	0.027901504
201	0xbe065b9f	-0.13120888
202	0x3e841fa7	0.258054
203	0x3d65ad65	0.056073565
204	0x3e157fd1	0.1459954
205	0xbd5673ca	-0.05235652
206	0xbd873afe	-0.06603049
207	0x3d3f96aa	0.046774544
208	0x3e7c83fd	0.24659725
209	0x3e8cd6d1	0.27507642
210	0xbc92470c	-0.017856143
211	0xbc2eda66	-0.010672187
212	0xbe67d3e7	-0.22639428
213	0x3e797f00	0.24364853
214	0x3eccdb23	0.40010938
215	0x3db98f07	0.090604834
216	0x3d13408a	0.03595022
217	0xbe81dbae	-0.25362915
218	0xbdffca80	-0.12489796
219	0x3ea102db	0.3144749
220	0xbec4ccc4	-0.38437474
221	0xbdaa1080	-0.083039284
222	0xbed050f3	-0.4068676
223	0xbed3e86e	-0.41388267
224	0xbbc38bc0	-0.005967587
225	0xbe007d7e	-0.12547871
226	0xbc4c6197	-0.012474439
227	0x3e9c5019	0.3052986
228	0x3eca8cda	0.39560586
229	0x3ec9c933	0.39411315
230	0xbdc8e1ff	-0.0980873
231	0xbe4edc64	-0.2020126
232	0x3e9a5c64	0.30148613
233	0x3e15c0ac	0.1462428
234	0x3dd846d7	0.10560387
235	0xbd8fb568	-0.07017022
236	0xbe5bae20	-0.21453142
237	0x3e12677d	0.1429729
238	0x3e68d27d	0.22736545
239	0xbd5c2ddc	-0.053754672
240	0xbe937586	-0.288006
241	0xbe010ff7	-0.12603746
242	0xbc4c8994	-0.012483973
243	0xbd1f2230	-0.038850963
244	0xbdffe444	-0.1249471
245	0xbe279914	-0.16366988
246	0xbecfc2ec	-0.405784
247	0xbebc1c4a	-0.36740333
248	0xbe8febdb	-0.2810963
249	0x3cbf00b6	0.023315769

conv1.bias f4 [10]
0	0x3caa987f	0.020824669
1	0xbdfa78ae	-0.12230049
2	0xbd9b25c6	-0.07575564
3	0x3d6a1ba8	0.05715528
4	0x3e3522f4	0.17689115
5	0x3d087d10	0.033322394
6	0x3dd18c8a	0.10231884
7	0x3dbae78f	0.091261975
8	0xbcdd29e8	-0.026997522
9	0x3c2c8ce7	0.010531641

conv2.weight f4 [20, 10, 5, 5]
0	0x3b5460d9	0.0032406359
1	0x3cc07255	0.023492018
2	0xbe1e3768	-0.15450823
3	0xbd1fa9ce	-0.038980298
4	0x3d055d9f	0.032559987
5	0xbd65a0ea	-0.056061663
6	0xbd16ad21	-0.036786202
7	0xbdf20701	-0.11817742
8	0x3d0068c1	0.0313499
9	0xbc4fbf5c	-0.012679901
10	0x3d8fc419	0.070198245
11	0xbab99dff	-0.0014161466
12	0xbd008336	-0.031375133
13	0x3d667422	0.056263097
14	0x3d02ea94	0.031961992
15	0xbdaa1848	-0.083054125
16	0xbd383530	-0.0449726
17	0x3c8987e0	0.016788423
18	0x3c4da7d8	0.012552224
19	0x3cddf962	0.027096454
20	0x3c7b952f	0.015355392
21	0x3d600737	0.05469438
22	0x3d946964	0.07246664
23	0x3cc1bddb	0.0236501
24	0xbd8c3886	-0.068467185
25	0xbcc12e76	-0.023581725
26	0xbdc8190f	-0.097704045
27	0xbc11b6c7	-0.008893675
28	0x3c9dd0a5	0.019264529
29	0xbb84a196	-0.004047583
30	0xbd12863d	-0.03577255
31	0xbdb73887	-0.089463286
32	0x3d6b5cd8	0.05746159
33	0x3d989b8e	0.07451545
34	0xbc446a7b	-0.011988278
35	0xbdb23947	-0.08702331
36	0x3c394082	0.011306884
37	0x3ca1b0f8	0.019737706
38	0x3c4076e4	0.011747096
39	0xbc505d5a	-0.012717569
40	0xbd92cc58	-0.07167882
41	0xbb7f5415	-0.003896003
42	0x3ca42965	0.02003927
43	0xbc90fb02	-0.017697815
44	0xbd0dcb76	-0.034617864
45	0xbc09a94e	-0.008402182
46	0x3b0b7f5b	0.0021285627
47	0x3ba9a40e	0.0051770275
48	0xbd9aa885	-0.07551674
49	0xbdb908ff	-0.09034919
50	0x3d7c61c5	0.061616678
51	0xbca30267	-0.019898606
52	0x3d118d8c	0.03553538
53	0x3d4369d0	0.047708333
54	0x3e0bebdc	0.13664192
55	0xbd9b80c1	-0.07592917
56	0x3d1b2d0f	0.037884768
57	0x3da55d2a	0.0807441
58	0x3ddec35a	0.10877104
59	0x3cb9adf0	0.022665948
60	0xbd5953ab	-0.053058308
61	0x3c6515d1	0.013982252
62	0xbaa7eab6	-0.0012811038
63	0x3bdb77a9	0.006697614
64	0xbd173a06	-0.03692057
65	0xbdd64bbc	-0.10463664
66	0xbdd8cd1e	-0.10585998
67	0xbd4593f8	-0.048236817
68	0xbdd3b54b	-0.10337313
69	0xbd8b99c1	-0.068164356
70	0x3ccde156	0.025131863
71	0xbda22d2e	-0.079187736
72	0xbd8ff306	-0.07028775
73	0xbd9f3167	-0.077730946
74	0xbda007cd	-0.07813988
75	0x3d48ec4e	0.049053483
76	0xbd591fc7	-0.05300882
77	0xbd305318	-0.043047994
78	0xbbdf23e8	-0.0068097003
79	0x3c19f6a3	0.009397182
80	0xbceae644	-0.028674252
81	0xbd132e4d	-0.035932828
82	0xbda0bda1	-0.07848669
83	0x3c7a67c5	0.01528353
84	0x3a10c939	0.00055231486
85	0xbc5b3b2f	-0.01338081
86	0xbd2bbc04	-0.041927353
87	0xbd576f17	-0.052596178
88	0xbdac6294	-0.0841724
89	0xbd4f7860	-0.050651908
90	0x3e05f760	0.13082647
91	0x3db5309f	0.08847164
92	0xbc6f25c2	-0.0145964045
93	0xbd1c5f71	-0.038176958
94	0x3d39f301	0.045397762
95	0x3d19861b	0.03748141
96	0x3e01b0dd	0.12665124
97	0x3dc028af	0.0938276
98	0x3d970382	0.07373716
99	0x3c2016fc	0.009771105
100	0x3d117461	0.03551138
101	0xbd9417f7	-0.072311334
102	0x3c20b32c	0.009808343
103	0x3d4bd373	0.0497622
104	0x3e0ddcba	0.13853732
105	0xbd2dba69	-0.042414103
106	0xbdefb0a4	-0.117036134
107	0xbc84cb1d	-0.016210133
108	0x3db45966	0.08806114
109	0xbc13e989	-0.009027847
110	0xbdc01d12	-0.09380545
111	0x3d83d762	0.064375654
112	0x3d5d556c	0.054036543
113	0x3c32ebee	0.010920508
114	0xbc635ba7	-0.013876832
115	0xbdb8ca5a	-0.090229705
116	0xbd56ca7e	-0.052439205
117	0x3d4060d3	0.04696734
118	0x3c85573c	0.016276948
119	0xbd8f1937	-0.06987231
120	0xbd2e96e2	-0.04262436
121	0xbdd9f52c	-0.10642466
122	0xbdcb149f	-0.099160425
123	0xbdbb1f24	-0.09136799
124	0xbe0fa051	-0.14026
125	0x3d88aed7	0.06673973
126	0x3d706d04	0.058697715
127	0x3de3694b	0.111040674
128	0x3de977c0	0.113997936
129	0x3b366651	0.0027831981
130	0xbbe0d826	-0.0068617044
131	0x3db54bfe	0.08852385
132	0x3db4e0ed	0.08831964
133	0x3db7fca5	0.08983735
134	0x3d841425	0.06449155
135	0x3cb9cbe0	0.022680223
136	0x3df84d4d	0.12124119
137	0x3dcf71c4	0.10129121
138	0x3d92d8fc	0.07170293
139	0xbd0c182f	-0.03420275
140	0xbdd4db59	-0.103934
141	0x3cac48ba	0.021030772
142	0x3cdb9f43	0.02680934
143	0xbd2fd548	-0.04292801
144	0xbdaf5584	-0.08561233
145	0xbdc68265	-0.096928395
146	0xbde00b1c	-0.10939619
147	0xbe0327bd	-0.12808128
148	0xbc7bf4ce	-0.01537819
149	0xbd894067	-0.06701737
150	0xbbb6fe8c	-0.0055845436
151	0x3aced106	0.0015778847
152	0x3cdf6019	0.027267503
153	0xbcb670c7	-0.022270573
154	0x3cf55b25	0.029950688
155	0x3d33937e	0.04384183
156	0xbd66957b	-0.0562949
157	0x3daac19a	0.08337708
158	0xbccb3d21	-0.024809422
159	0xbd3be474	-0.045872167
160	0xbd6bb1b2	-0.05754251
161	0x3d6a1a9a	0.057154275
162	0x3d3c3351	0.045947377
163	0x3d8ce2aa	0.0687917
164	0xbcd59848	-0.02607359
165	0x3c73134e	0.014836146
166	0xbd18438c	-0.037173793
167	0xbd06ebc2	-0.03293968
168	0x3b18538f	0.0023243164
169	0xbd33ac2d	-0.04386537
170	0x3cb1a71d	0.021686131
171	0xbcba08ed	-0.022709334
172	0x3c169397	0.009190462
173	0x3bf093f1	0.0073418547
174	0xbd389d12	-0.04507167
175	0xbd92affb	-0.07162472
176	0x3d0c11fd	0.034196842
177	0xbd27eb94	-0.04099615
178	0xbc14d58e	-0.0090841185
179	0x3d878cd4	0.06618658
180	0x3acbe2e7	0.0015555293
181	0x3dd2d0fa	0.10293765
182	0xbde4a63d	-0.1116452
183	0x3bb460ca	0.005504702
184	0x3d2be76e	0.041968755
185	0xbbfc6ab4	-0.0077031497
186	0xbd3d460f	-0.04620939
187	0xbcb31429	-0.021860199
188	0xbd4cfaf4	-0.050044015
189	0x3b755942	0.0037437235
190	0x3d506024	0.050872937
191	0x3ca46cbb	0.020071378
192	0x3da38624	0.0798457
193	0x3d96b48c	0.07358655
194	0x3deed9b8	0.1166262
195	0x3e0edc00	0.13951111
196	0x3d0c1622	0.034200795
197	0x3c63fb60	0.013914913
198	0x3d03b0c4	0.032151
199	0xbdb3e906	-0.0878468
200	0x3d07c05e	0.03314244
201	0xbd9c0497	-0.07618063
202	0xb987a2dc	-0.00025870546
203	0x3b9fd18d	0.0048772753
204	0xbc9fa8f6	-0.019489747
205	0x3bc99dc1	0.006152839
206	0xbd379a2d	-0.044824768
207	0xbd455703	-0.048178684
208	0x3c687ae6	0.0141894575
209	0xbc8a5349	-0.016885417
210	0x3d42d726	0.047568463
211	0x3bc26a34	0.0059330706
212	0x3dc68478	0.09693235
213	0x3d863bb7	0.065543585
214	0x3cb3ece5	0.021963546
215	0x3d8869e9	0.06660826
216	0xbcbc34d5	-0.022974411
217	0x3d820881	0.06349278
218	0x3c210812	0.009828584
219	0xbde759e6	-0.11296444
220	0xbd95b0e0	-0.07309127
221	0xbdc778be	-0.097398266
222	0xbcbad63a	-0.02280723
223	0xbd54f822	-0.05199445
224	0xbd88e9cd	-0.06685219
225	0x3dbab9d3	0.091174744
226	0xbd97ed1c	-0.07418272
227	0x3d6a87bc	0.057258353
228	0xbc22ce44	-0.009936873
229	0xbcc2387f	-0.02370858
230	0x3d5d054c	0.05396013
231	0xbc82090a	-0.01587345
232	0x3c0b0841	0.008485855
233	0xbdd958eb	-0.10612663
234	0x3ce744e7	0.028231097
235	0x3d6c9e6f	0.05776828
236	0x3d9cfacb	0.076650225
237	0xbd30d216	-0.043169104
238	0xbd1b011c	-0.037842855
239	0x3ce7711e	0.02825218
240	0x3cf51a6a	0.029919822
241	0x3cabe37f	0.020982502
242	0xbc545724	-0.012960229
243	0x3c64ad57	0.013957343
244	0xbd016fad	-0.031600643
245	0xbdd6cbba	-0.104880765
246	0xbd979b21	-0.07402635
247	0xbd6f3d70	-0.0584082
248	0x3d1f3eef	0.038878378
249	0xbd9b76be	-0.07591008
250	0xbcf08efa	-0.029365052
251	0x3d04b541	0.03239942
252	0xbcd4e094	-0.025985993
253	0x3db4d3a6	0.08829431
254	0x3dfec967	0.12440758
255	0xbd94fc40	-0.07274675

conv2.bias f4 [20]
0	0x3d164e33	0.03669567
1	0xbd13cf7e	-0.03608655
2	0x3d2f165a	0.042745925
3	0xbd42e26e	-0.04757922
4	0xbcc25e38	-0.023726568
5	0xbd1ac696	-0.037787043
6	0xbd1c6c69	-0.038189325
7	0xbb67f658	-0.0035394635
8	0xbd7ecee1	-0.062209014
9	0xbcf19452	-0.02948967
10	0x3c9afa12	0.018918071
11	0xbd7cce14	-0.06171997
12	0xbd6f9e24	-0.058500424
13	0x3d980646	0.074230716
14	0xbcdeac86	-0.027181875
15	0xbdaf563f	-0.08561372
16	0x3b31fcf2	0.0027158824
17	0xbd9e31b6	-0.07724325
18	0xbc8361a5	-0.016037771
19	0x3ceb0166	0.02868719

fc1.weight f4 [50, 320]
0	0xbd3113e2	-0.043231852
1	0xbd38bf1a	-0.045104124
2	0xbccc25f8	-0.024920449
3	0x3c9199a2	0.017773453
4	0x3dcca251	0.09991897
5	0xbd6de41b	-0.058078866
6	0x3c4355d6	0.01192232
7	0x3d89935a	0.06717558
8	0x3ce5d04c	0.028053425
9	0xbcf3e38c	-0.029771589
10	0x3d82e737	0.06391757
11	0x3d05ce96	0.03266772
12	0x3d2dfdd3	0.042478394
13	0xbd6b8eca	-0.05750922
14	0xbc179261	-0.009251208
15	0xbd9b880d	-0.07594309
16	0xbabea3d1	-0.0014544671
17	0x3d0e83b5	0.034793574
18	0xbd0420f2	-0.03225798
19	0x3d751f7d	0.059844483
20	0x3d7b2b7e	0.061320774
21	0x3c68dc4f	0.014212682
22	0x3d72c2ba	0.059267737
23	0x3d8d8398	0.06909865
24	0x3cfdeb9c	0.030996136
25	0xbdb51180	-0.088412285
26	0x3d04372f	0.03227919
27	0x3d25a605	0.04044153
28	0xbc6634c2	-0.014050664
29	0xbd919e24	-0.07110241
30	0xbcb2e4f8	-0.021837696
31	0xbcc075d1	-0.02349368
32	0xbd17ef6f	-0.037093576
33	0xbaa66eda	-0.0012697831
34	0xbd763229	-0.06010643
35	0xbd41d295	-0.047319967
36	0x3cfd49cc	0.030918978
37	0x3c8acb28	0.016942576
38	0x3bdddf1a	0.0067709805
39	0x3d91227d	0.07086656
40	0x3e03a88c	0.12857264
41	0x3d614ac8	0.055002958
42	0x3c46e1ad	0.012138766
43	0x3b91b430	0.004446529
44	0xbd657e8c	-0.056028888
45	0xbcd7cc4d	-0.026342535
46	0x3c58795f	0.013212531
47	0xbdb681dc	-0.089114875
48	0x3ccdafeb	0.025108298
49	0x3cba22e6	0.022721719
50	0x3d0203ed	0.031742025
51	0x3cd9397b	0.026516667
52	0x3b08b479	0.0020859523
53	0x3ca896e3	0.02057976
54	0xbcf8e4dd	-0.030382568
55	0xbbe29f11	-0.006915935
56	0xbcf8eabd	-0.03038537
57	0xbd2bc262	-0.041933425
58	0xbd324cf5	-0.043530423
59	0xbbc47064	-0.0059948433
60	0xbd2f9590	-0.042867243
61	0xbd2fc7a0	-0.042914987
62	0x3d04e3e3	0.032443892
63	0xbd61f0bd	-0.055161227
64	0x3cf87eae	0.030333843
65	0x3c31d408	0.010853775
66	0x3c4a336c	0.0123413615
67	0xbc031e46	-0.008002823
68	0x3d41eca1	0.047344808
69	0xbaf20e5d	-0.0018467415
70	0xbc854679	-0.016268956
71	0x3c302599	0.0107511515
72	0xbd6a666b	-0.05722658
73	0xbda010d0	-0.07815707
74	0xbcc9143f	-0.024545787
75	0xbc19f43f	-0.009396612
76	0xbd155d4e	-0.036465935
77	0x3d512924	0.051064625
78	0x3cdd63ce	0.02702513
79	0xbcb52753	-0.022113478
80	0xbcd81f30	-0.026382059
81	0x3d2c2431	0.042026702
82	0xbc1a9eb7	-0.009437255
83	0xbcb7d9e2	-0.022442762
84	0x38d105d5	9.966983e-05
85	0xbcbb04fb	-0.022829523
86	0x3b8e61d1	0.0043451567
87	0x3d024bd9	0.031810615
88	0xbd057a84	-0.032587543
89	0xbcf033c9	-0.029321568
90	0xbd17339d	-0.036914457
91	0xbd60dbba	-0.054897048
92	0x3d925c74	0.0714654
93	0x3d9b3da6	0.07580118
94	0x3dd85a44	0.10564092
95	0x3accd1f1	0.0015626532
96	0x3d1b350c	0.037892386
97	0xbc7f1b2e	-0.015570445
98	0x3d8b03e3	0.06787851
99	0x3c867c02	0.016416553
100	0x3c984fae	0.018592682
101	0xbd75a1ae	-0.059968643
102	0xbd36079e	-0.044440858
103	0x3af24eb6	0.0018486592
104	0xbc9c2b88	-0.019063726
105	0xbd611aaa	-0.05495707
106	0x3cfe5c80	0.031049967
107	0x3ce0deb7	0.027449949
108	0x3d837e67	0.06420594
109	0xbc97ed3b	-0.018545737
110	0xbbebc599	-0.0071951863
111	0x3d7b2a38	0.06131956
112	0x3bb8913d	0.005632548
113	0xbbfb3d77	-0.0076672393
114	0x3d81dfd8	0.06341523
115	0x3d3d1a71	0.046167795
116	0x3d7dacd0	0.061932385
117	0x3c9b5c49	0.018964903
118	0x3cae790b	0.021297952
119	0x3d71c4f1	0.05902571
120	0x3df2e734	0.11860505
121	0xbc986b96	-0.018605988
122	0xbd2da5c9	-0.042394433
123	0xb8961474	-7.156367e-05
124	0xbce92538	-0.02846013
125	0xbd785924	-0.060631886
126	0xbd5465a7	-0.051854756
127	0xbd1a5176	-0.037675343
128	0xbcde71f6	-0.02715395
129	0x3c9d711b	0.019218972
130	0x3d840d37	0.06447833
131	0x3cd2f199	0.025749968
132	0x3b7e8be3	0.0038840703
133	0x3db451b4	0.08804646
134	0x3dbd858d	0.092539884
135	0x3d8676e8	0.06565648
136	0x3d71ac69	0.059002314
137	0x3cce4aef	0.025182215
138	0xbcd6ca38	-0.026219472
139	0x3d14037e	0.036136143
140	0xbd429379	-0.047503922
141	0xbd17bdb8	-0.037046164
142	0xbd561f52	-0.052275963
143	0xbd435aeb	-0.047694128
144	0xbc5a060c	-0.013307106
145	0xbcf3ac15	-0.029745141
146	0xbcf69c34	-0.03010378
147	0x3cebbecd	0.028777504
148	0x3d717958	0.058953613
149	0xbc8a4428	-0.016878203
150	0x3b385bdd	0.0028130927
151	0xbb17f959	-0.0023189394
152	0xbcc2cf95	-0.023780623
153	0xbd484b2b	-0.04889981
154	0xbd226100	-0.039643288
155	0x3b6fbc9e	0.003658093
156	0x3da38476	0.07984249
157	0x3db812c5	0.08987955
158	0x3d2ada4f	0.0417121
159	0x3d2f4438	0.042789668
160	0x3d4b4686	0.049627803
161	0xbc8053bb	-0.015664926
162	0xbd7536c8	-0.059866697
163	0xb9bfe49f	-0.00036600695
164	0x3bb4c135	0.005516196
165	0xbd66d3bb	-0.056354266
166	0x3d07af0f	0.033125933
167	0xbd467c8c	-0.04845862
168	0xbda850cb	-0.08218535
169	0x3cc750a5	0.024330446
170	0xbc88106e	-0.016609397
171	0x3cd21396	0.025644105
172	0x3daa7eea	0.08324988
173	0x3dd2e3d7	0.10297363
174	0x3db87bbe	0.09007977
175	0xbcb805cf	-0.022463707
176	0xbc7ef97f	-0.015562414
177	0xbd835fb0	-0.06414735
178	0xbd917cff	-0.07103919
179	0xbd4ab68f	-0.049490508
180	0x3cf1ded6	0.029525202
181	0x3d906db8	0.07052177
182	0x3c88019b	0.016602328
183	0xbc599f25	-0.013282572
184	0xbd071a04	-0.032983795
185	0xbd830ac1	-0.063985355
186	0x3ca77c6f	0.020445077
187	0xbcadb52d	-0.021204555
188	0xbc1f7cbf	-0.009734332
189	0x3d9a8df6	0.07546608
190	0x3cc2d066	0.023781013
191	0x3d470ec1	0.048598055
192	0xbc2f77f0	-0.010709748
193	0x3c169e1e	0.0091929715
194	0xbcb90633	-0.022585964
195	0xbcf80060	-0.030273616
196	0x3d8cfcbb	0.06884142
197	0x3d1c917d	0.038224686
198	0xbbff97aa	-0.007800062
199	0xbc66840b	-0.014069567
200	0x3e0d0b90	0.13773942
201	0xbd4e8df2	-0.05042834
202	0xbcbf306a	-0.023338515
203	0xbc007913	-0.007841366
204	0xbbd22ec7	-0.0064142677
205	0xbd309fe1	-0.043121222
206	0x3cd36c4c	0.025808476
207	0xbcbcecac	-0.023062073
208	0xbccd6f5d	-0.025077516
209	0x3d745aab	0.05965678
210	0x3d9a61f6	0.07538216
211	0x3cc0a802	0.023517612
212	0x3c2b0c92	0.010440009
213	0xbd07e26a	-0.03317491
214	0x3d6be820	0.05759442
215	0xbd15c7c7	-0.036567476
216	0xbddd1065	-0.10794143
217	0xbc943004	-0.018089302
218	0xbc6ee9b7	-0.014582089
219	0xbd0dfad0	-0.03466302
220	0xbc195722	-0.009359153
221	0xba51d47c	-0.000800438
222	0xbd08e385	-0.033420105
223	0xbd4dc280	-0.050234318
224	0x3d03d031	0.03218097
225	0x3c0a7945	0.0084517645
226	0xbd5628cf	-0.05228501
227	0xbd4f1c12	-0.05056388
228	0xbb447d65	-0.0029981968
229	0xbc02fada	-0.007994378
230	0xbd284f4d	-0.041091252
231	0x3c8c00fa	0.01709031
232	0xbd489aeb	-0.048975866
233	0x3ba5ba94	0.0050576422
234	0xbcef133a	-0.029183973
235	0xbcc51ed1	-0.024062546
236	0xbbcc10e2	-0.0062275985
237	0xbca01d68	-0.019545272
238	0x3d1fdc24	0.0390283
239	0x3d8a0978	0.06740087
240	0x3a3d28e7	0.0007215873
241	0xbd17632b	-0.03695981
242	0xbe120aa9	-0.14261879
243	0xbdbab974	-0.091174036
244	0xbc26c23d	-0.010178146
245	0xbc8ab4a9	-0.016931849
246	0xbd5c6050	-0.05380279
247	0x3d078c99	0.03309307
248	0x3dad8736	0.08473055
249	0x3d31dfab	0.043426197
250	0x3d6763ac	0.05649154
251	0xbcb54f71	-0.022132607
252	0xbcf10ae4	-0.029424138
253	0xbc5efef5	-0.013610591
254	0x3d3b1cc5	0.045681734
255	0xbcf88787	-0.030338062

fc1.bias f4 [50]
0	0x3d7b49e9	0.061349783
1	0x3d26cda0	0.040723443
2	0x3c7dfaba	0.015501672
3	0x3c7527f0	0.014963135
4	0x3cfcccf4	0.030859448
5	0x3c2e3d60	0.01063475
6	0x3bb0e9d7	0.0053989696
7	0xbcabfc59	-0.020994352
8	0x3d5666f4	0.052344278
9	0x3cae1d5b	0.021254232
10	0x3cb5a261	0.022172155
11	0x3db018d4	0.085984856
12	0xbc82c48a	-0.015962858
13	0x3ca2c024	0.01986701
14	0x3c453eec	0.0120389275
15	0xbcec92aa	-0.028878529
16	0x3da66b57	0.08125942
17	0x3d404459	0.04694018
18	0x3d96f4ff	0.07370948
19	0xbc53d921	-0.0129301855
20	0x3d29d8cd	0.041466523
21	0x3d0e4d59	0.034741733
22	0xbd006e7c	-0.031355366
23	0x3d64ef93	0.05589254
24	0x3d67e6d0	0.056616604
25	0xbb69cdc5	-0.0035675627
26	0x3db89ef7	0.09014695
27	0x3ad014b3	0.001587531
28	0xbc9ff5e1	-0.019526424
29	0xbc6b3bd6	-0.014357528
30	0xbc5392f2	-0.012913452
31	0x3d39f4c9	0.04539946
32	0x3cba72f9	0.022759901
33	0xbcb011ac	-0.021492802
34	0xbcbe2f51	-0.023215922
35	0x3dcba29c	0.09943125
36	0x3d14a7d5	0.03629287
37	0xbd5e5e97	-0.054289427
38	0x3d342e7b	0.04398964
39	0xbc632357	-0.013863406
40	0x3cfd6d91	0.030936034
41	0x3dc905e7	0.09815579
42	0x3d4e64b2	0.050389
43	0xbcc43580	-0.023951292
44	0x3b699c09	0.0035645983
45	0x3d2b8802	0.041877754
46	0xbcc2d573	-0.023783421
47	0xbcd58c33	-0.026067829
48	0x3d708d2d	0.058728386
49	0x3d964726	0.07337789

fc2.weight f4 [10, 50]
0	0xbd9da4d9	-0.07697458
1	0xbe234738	-0.15945137
2	0x3e0a59e7	0.13510858
3	0x3e4f4cf0	0.20244193
4	0xbe5176a3	-0.20455413
5	0xbd651474	-0.05592771
6	0xbe5ddf25	-0.21667154
7	0xbe1a6403	-0.15077214
8	0xbe0fdf08	-0.14049923
9	0xbe51d999	-0.20493163
10	0xbe756de7	-0.23967706
11	0xbe17a76f	-0.14809965
12	0xbe077cf7	-0.13231264
13	0x3e5d691a	0.21622124
14	0x3e80bd56	0.25144452
15	0x3e25d6b3	0.16195183
16	0x3e1a5d00	0.15074539
17	0x3e8538d8	0.2601993
18	0x3d9e4496	0.077279255
19	0xbe16fd21	-0.14744999
20	0xbe1e2eb6	-0.15447506
21	0xbe42604a	-0.18982044
22	0xbe2141d3	-0.15747766
23	0xbe916e48	-0.2840445
24	0xbdda3d3b	-0.1065621
25	0xbe84d126	-0.25940818
26	0xbe79195f	-0.24326085
27	0xbe774461	-0.24147178
28	0xbbd40f18	-0.006471526
29	0x3e8853c2	0.26626402
30	0xbe189900	-0.14902115
31	0xbe2cefa2	-0.16888288
32	0x3e7f616f	0.24939512
33	0x3e2ea3f9	0.17054738
34	0xbe2cb294	-0.16864997
35	0x3e638f45	0.22222622
36	0x3de35a33	0.111011885
37	0x3ccfd650	0.025370747
38	0x3e0a8609	0.13527693
39	0xbe4206af	-0.18947862
40	0xbe1f2daf	-0.1554477
41	0xbe6a1af0	-0.22861838
42	0x3e1b4892	0.15164402
43	0xbe2fe899	-0.17178573
44	0xbd384d76	-0.044995748
45	0x3e831b64	0.25606835
46	0xbdf2981d	-0.118454196
47	0xbe00642e	-0.12538216
48	0x3e58d157	0.21173607
49	0x3e52912a	0.20563188
50	0xbdadc1e1	-0.08484245
51	0x3e2562df	0.16150998
52	0xbe7fb7c2	-0.24972442
53	0x3e321709	0.173916
54	0x3e5e1f90	0.21691728
55	0x3e4f1e39	0.20226373
56	0xbe6438cd	-0.22287293
57	0x3e0bdc86	0.13658342
58	0xbc7cc03c	-0.015426692
59	0xbe2e7a56	-0.17038855
60	0x3ca6a5d7	0.02034275
61	0x3e6a956a	0.2290856
62	0xbdedcd97	-0.11611479
63	0xbe3ea4e6	-0.18617591
64	0xbc28cb9b	-0.01030245
65	0xbe75c05d	-0.23999162
66	0x3db7f198	0.08981627
67	0xbdbf098e	-0.09327994
68	0xbe66dcb9	-0.22545137
69	0x3e04f3fb	0.12983696
70	0xbe42fdf2	-0.19042185
71	0xbd3ab553	-0.04558308
72	0x3e5c92cc	0.21540374
73	0x3e38ba36	0.18039784
74	0x3e5bbfbc	0.2145986
75	0xbe870245	-0.2636892
76	0xbe9547e9	-0.29156426
77	0x3e851364	0.25991356
78	0x3e472b75	0.19450171
79	0x3b23bdfd	0.0024985068
80	0x3e5583c5	0.20851047
81	0xbe0cac45	-0.1373759
82	0xbe4de682	-0.20107463
83	0xbe752baf	-0.23942445
84	0x3e60d443	0.21955971
85	0xbd33561c	-0.043783292
86	0xbe1fba3a	-0.15598384
87	0xbe0c4cde	-0.13701198
88	0x3de2a1a4	0.11065987
89	0x3e7e3285	0.24823959
90	0xbd86d8c4	-0.065843135
91	0x3e211633	0.15731125
92	0xbe201811	-0.1563418
93	0xbe78c616	-0.24294314
94	0x3e69db82	0.22837642
95	0xbde69325	-0.11258534
96	0xbe4abf70	-0.1979959
97	0x3e520c9d	0.20512624
98	0xbe88171a	-0.26580125
99	0x3c895ada	0.016766954
100	0xbe0fc855	-0.14041264
101	0xbd6b9cbd	-0.057522524
102	0xbdad1b65	-0.08452491
103	0x3d3be3a7	0.045871403
104	0xbe132d16	-0.14372668
105	0x3e54dea5	0.20788057
106	0x3e285b8b	0.16441171
107	0x3db89b8f	0.090140454
108	0x3e66a83c	0.22525114
109	0x3dca1bd2	0.098685876
110	0xbd90db45	-0.07073072
111	0x3e88b813	0.26702937
112	0x3e571cbd	0.21007057
113	0x3e443de5	0.19164236
114	0x3e3ce9b7	0.1844853
115	0x3df8971c	0.12138197
116	0x3d8df789	0.06931979
117	0xbdc3709b	-0.09542962
118	0xbe343bd3	-0.17600946
119	0xbe8761b2	-0.26441723
120	0xbdb5ff00	-0.08886528
121	0x3e71b4a0	0.23604059
122	0xbe15abbb	-0.14616291
123	0xbe4ab7ff	-0.19796751
124	0xbe0771fa	-0.13227072
125	0xbd9d5a66	-0.07683258
126	0xbe5653c1	-0.20930387
127	0x3d18cbeb	0.037303846
128	0xbe7f70a4	-0.24945313
129	0xbd8b2d3c	-0.06795737
130	0xbdbaeb61	-0.09126926
131	0xbdbf4721	-0.09339739
132	0x3c05fb2d	0.008177561
133	0xbe1a7a6f	-0.15085767
134	0x3e5ccf78	0.21563518
135	0x3e1af4d4	0.15132457
136	0xbd10e32b	-0.035372894
137	0xbdaca43c	-0.08429763
138	0x3de79201	0.11307145
139	0x3e523f41	0.20531942
140	0x3e1ca2c8	0.15296471
141	0x3e63e020	0.22253466
142	0xbe206c62	-0.15666345
143	0xbd147242	-0.036241777
144	0x3e02a2ce	0.12757418
145	0x3e557343	0.2084475
146	0xbd40834a	-0.047000207
147	0x3e5dbbd9	0.2165369
148	0xbe35df78	-0.17761028
149	0x3e4624d5	0.19349988
150	0x3d8c75df	0.068584196
151	0x3e612df1	0.21990182
152	0x3e26aa17	0.16275822
153	0xbe6b8c1d	-0.23002668
154	0xbd1a7389	-0.03770784
155	0xbe3be87f	-0.18350409
156	0x3ddd241c	0.10797903
157	0x3dc6d089	0.09707744
158	0x3c825e82	0.015914205
159	0x3ddb9a1b	0.10722753
160	0xbd65fb67	-0.05614796
161	0x3e757a70	0.23972487
162	0xbe0ef9ad	-0.13962431
163	0xbd5da16f	-0.054109033
164	0x3cc717c1	0.024303319
165	0xbdca0b76	-0.09865467
166	0xbd71fef3	-0.05908103
167	0xbbb9a8d3	-0.0056658774
168	0xbd6dfc96	-0.058102213
169	0x3e372020	0.17883348
170	0x3e850962	0.2598372
171	0x3e81a573	0.2532154
172	0x3cd792ff	0.02631521
173	0xbd983ffe	-0.074340805
174	0xbe7fe1ce	-0.24988481
175	0xbe13db1c	-0.14439052
176	0x3e330720	0.17483187
177	0xbda6509a	-0.08120842
178	0x3e88eee5	0.26744762
179	0xbe169c7b	-0.1470813
180	0xbe90407a	-0.28174192
181	0x3e93e8e5	0.28888622
182	0xbe1d78f5	-0.15378173
183	0x3e1f79d4	0.15573817
184	0x3b2fda05	0.002683283
185	0x3c4201f0	0.011841282
186	0x3e4c537a	0.19953719
187	0x3aeca539	0.0018054611
188	0xbe6d2070	-0.23156905
189	0xbdb3d0ba	-0.08780046
190	0x3e451230	0.19245219
191	0x3e6e77f6	0.23287949
192	0xbe41d2f4	-0.18928128
193	0x3dec95af	0.115519874
194	0x3e302abe	0.17203805
195	0xbd2b22c8	-0.041781217
196	0xbdf6eaa3	-0.12056472
197	0x3d7c6650	0.06162101
198	0xbe1c419e	-0.15259406
199	0x3e2988b7	0.16556059
200	0x3e311dff	0.17296599
201	0x3e11a7d8	0.14224184
202	0xbe3eb289	-0.18622793
203	0x3c1ca5aa	0.009560982
204	0x3e4cea6e	0.20011303
205	0x3e4b6b03	0.1986504
206	0x3e2dca47	0.16971694
207	0xbe31262e	-0.1729972
208	0xbe4c106b	-0.19928138
209	0xbe486ebc	-0.19573492
210	0x3e846674	0.25859416
211	0x3d0d937a	0.034564473
212	0x3e937f2c	0.28807962
213	0xbe3a0491	-0.18165804
214	0xbd3f947c	-0.046772465
215	0x3e1be972	0.15225771
216	0xbe7d2064	-0.24719387
217	0xbe4f6cef	-0.20256399
218	0xbdd4e32c	-0.10394892
219	0xbe196b44	-0.14982325
220	0xbe34c353	-0.17652635
221	0xbdd938c7	-0.106065325
222	0x3e670dc0	0.22563839
223	0x3e51d3ed	0.20491
224	0x3e1e121e	0.15436599
225	0x3e6ec6fe	0.23318097
226	0x3d909f0c	0.07061586
227	0xbc280ab0	-0.010256454
228	0xbd76d8e5	-0.06026544
229	0xbe071614	-0.13192016
230	0x3dff8dde	0.12478231
231	0x3e76baa3	0.24094634
232	0xbe527613	-0.20552854
233	0xbe8dd972	-0.2770496
234	0xbdc52781	-0.096266754
235	0xbe57be10	-0.21068597
236	0xbe100e7a	-0.14068022
237	0x3eb3cedb	0.35118756
238	0x3e159370	0.14607024
239	0xbd9609b8	-0.073260725
240	0xbe88e4be	-0.26737016
241	0xbe1e4902	-0.15457538
242	0x3e1f6ce9	0.1556889
243	0x3d17b949	0.037041936
244	0xbe41a1d2	-0.18909386
245	0xbd30e152	-0.043183632
246	0xbdd0f634	-0.102032095
247	0xbe4f7b3b	-0.20261852
248	0x3e5349bc	0.20633596
249	0xbe306280	-0.17225075
250	0x3e23a037	0.15979086
251	0xbd957458	-0.072975814
252	0x3e0fc311	0.14039256
253	0xbe31a39e	-0.17347571
254	0xbc92c780	-0.017917395
255	0xbe1b60a9	-0.15173592

fc2.bias f4 [10]
0	0x3ca7ea2c	0.020497404
1	0x3e043b5a	0.12913266
2	0xbcc68c89	-0.024236934
3	0xbdf7d092	-0.121003285
4	0xbd5d7b44	-0.054072633
5	0x3dd8d448	0.105873644
6	0xbe71be7f	-0.23607825
7	0xbe20a69e	-0.1568856
8	0x3e1f3f1e	0.15551421
9	0xbdefebb3	-0.11714878
